exam/src/main/assets/beefmodel.tflite (tflite, 171856 bytes, 26 tensors)

model/stage1/block1/bn_3x3dwconv_2/FusedBatchNormV3;model/stage1/block1/3x3dwconv_2/depthwise;model/stage1/block1/3x3dwconv_2/BiasAdd;model/stage1/block2/3x3dwconv/depthwise;model/stage1/block1/3x3dwconv_2/BiasAdd/ReadVariableOp f4 [6]
0	0xbfa32108	-1.2744455
1	0xbebe5ff6	-0.37182587
2	0xbf727d99	-0.94722897
3	0x3f8dbb8b	1.1072859
4	0x3fb12dff	1.3842162
5	0xbfd13706	-1.6344917

model/stage1/block1/bn_3x3dwconv/FusedBatchNormV3;model/stage1/block1/3x3dwconv/depthwise;model/stage1/block1/3x3dwconv/BiasAdd;model/stage1/block1/3x3dwconv/BiasAdd/ReadVariableOp f4 [9]
0	0x3cea6308	0.028611675
1	0xbf317efa	-0.69334376
2	0xbf893ca5	-1.0721632
3	0xbfa5867f	-1.293167
4	0x3e2dd6e0	0.169765
5	0x3cc827f0	0.024433106
6	0xbf9addd6	-1.2098949
7	0xbf523338	-0.82109404
8	0xbf74c1a6	-0.95607984

model/stage1/block2/bn_3x3dwconv/FusedBatchNormV3;model/stage1/block2/3x3dwconv/depthwise;model/stage1/block2/3x3dwconv/BiasAdd;model/stage1/block2/3x3dwconv/BiasAdd/ReadVariableOp f4 [6]
0	0xbe9ca4eb	-0.30594572
1	0xbf3c6ddb	-0.73605126
2	0xbf09f609	-0.53891045
3	0xbe5245f2	-0.20534495
4	0x3ec86ec8	0.3914702
5	0x3f0a5014	0.5402844

model/stage2/block1/bn_3x3dwconv_2/FusedBatchNormV3;model/stage2/block1/3x3dwconv_2/depthwise;model/stage2/block1/3x3dwconv_2/BiasAdd;model/stage2/block1/3x3dwconv_2/BiasAdd/ReadVariableOp f4 [24]
0	0xbf22e30a	-0.63627684
1	0xbf132d96	-0.57491434
2	0x3f2cd47f	0.67511743
3	0xbdbee9fc	-0.09321973
4	0x3f1b3fdd	0.6064432
5	0x3ebfd414	0.3746649
6	0x3f137d42	0.57613003
7	0xbd4116ac	-0.047140762
8	0xbe892de5	-0.26792827
9	0x3f32d0b2	0.69849694
10	0x3dd6b263	0.10483243
11	0x3e0ec5d7	0.13942657
12	0x3c9186a0	0.01776439
13	0xbf7941dd	-0.97366124
14	0x3d6fce52	0.05854637
15	0xbe2a83d5	-0.16651852
16	0x3e30fdb6	0.17284283
17	0xbec7f17d	-0.39051428
18	0xbc636484	-0.013878945
19	0xbdf408dc	-0.11915752
20	0x3cecff50	0.028930336
21	0xbe4efc9c	-0.2021355
22	0x3e40e4fa	0.18837348
23	0x3d25b4fa	0.040455796

model/stage2/block1/bn_3x3dwconv/FusedBatchNormV3;model/stage2/block1/3x3dwconv/depthwise;model/stage2/block1/3x3dwconv/BiasAdd;model/stage2/block1/3x3dwconv/BiasAdd/ReadVariableOp f4 [52]
0	0x3f5502c6	0.83207357
1	0xbea57430	-0.32315207
2	0xbf09a4d4	-0.5376713
3	0x3f1e13ec	0.6174915
4	0x3e1df0e3	0.15423922
5	0x3e8f1498	0.279454
6	0x3ebb40ee	0.36572975
7	0x3ebf02c6	0.37306803
8	0x3f845e45	1.0341269
9	0x3ef19e31	0.47191003
10	0xbda83a5e	-0.08214258
11	0xbf4823f3	-0.78179854
12	0xbde96bcc	-0.11397514
13	0xbd9bbb66	-0.07604103
14	0x3f3c7bd0	0.7362642
15	0xbea5a6be	-0.32353777
16	0x3fbe5290	1.4868946
17	0x3e324266	0.17408141
18	0x3e4e0068	0.20117342
19	0xbe93ced3	-0.28868732
20	0x3f96c357	1.1778363
21	0x3ddf9638	0.10917324
22	0xbf58230b	-0.8442847
23	0xbf489212	-0.78347886
24	0x3f798d4d	0.9748123
25	0xbf3861e5	-0.72024375
26	0x3f2054f3	0.6262962
27	0x3eff2484	0.49832547
28	0xbf5bddf2	-0.85885537
29	0x3f8285a2	1.0197031
30	0xbee548fd	-0.44782248
31	0xbeb72c80	-0.35776138
32	0xbe72042b	-0.23634402
33	0x3dd12f02	0.10214044
34	0x3e43d3e8	0.19123805
35	0xbfbe685f	-1.4875602
36	0xbe0c8318	-0.13721883
37	0xbeddbc64	-0.43307793
38	0x3e2fe39e	0.17176673
39	0xbf553844	-0.8328898
40	0xbf148e1d	-0.5802935
41	0x3e339a66	0.17539367
42	0xbf8c640c	-1.0968032
43	0xbe531a34	-0.20615464
44	0x3e3f53fe	0.18684384
45	0xbf851164	-1.0395932
46	0xbe487518	-0.19575918
47	0xbe845362	-0.25844866
48	0xbf4a059e	-0.7891482
49	0xbee7546a	-0.4518159
50	0xbcabdc10	-0.020978957
51	0x3df16372	0.11786546

model/stage2/block2/bn_3x3dwconv/FusedBatchNormV3;model/stage2/block2/3x3dwconv/depthwise;model/stage2/block2/3x3dwconv/BiasAdd;model/stage2/block2/3x3dwconv/BiasAdd/ReadVariableOp f4 [32]
0	0xbf051150	-0.5197954
1	0x3fc5e039	1.5459052
2	0x3e0daa34	0.13834459
3	0x3f9e5c8f	1.2371997
4	0xbf8959e8	-1.0730562
5	0xbf069352	-0.5256854
6	0x3f8e67bd	1.1125408
7	0xbe84a352	-0.25905854
8	0xbf451fb6	-0.7700151
9	0x3f4cab6b	0.79949063
10	0xbf816c89	-1.0111247
11	0x3f920938	1.1409063
12	0xbf8207cf	-1.0158633
13	0xbfb46956	-1.4094646
14	0xbe92e148	-0.286875
15	0x3f87f539	1.0621711
16	0x3fa53e86	1.2909706
17	0x3fa65a78	1.2996359
18	0x3f6b619d	0.9194582
19	0xbf87d447	-1.0611657
20	0xbf9f7621	-1.2457925
21	0xbf8f5b71	-1.1199781
22	0xbf8d349b	-1.1031679
23	0x3f549964	0.83046556
24	0xbfb2fbb3	-1.3983063
25	0x3fa144fe	1.259918
26	0x3fa4d693	1.2877983
27	0x3f5a2978	0.85219526
28	0x3fa14426	1.2598922
29	0xbeda30d0	-0.42615366
30	0xbf492ae7	-0.7858109
31	0xbf8b336a	-1.0875065

model/fc/BiasAdd/ReadVariableOp f4 [2]
0	0x3d65f208	0.056139022
1	0xbd615bcb	-0.05501918

model/1x1conv5_out/BiasAdd/ReadVariableOp f4 [256]
0	0xbd5eb20e	-0.054369025
1	0xbba6fb9b	-0.0050959117
2	0xba6c423f	-0.0009012557
3	0xbc67c988	-0.01414717
4	0xbc91e150	-0.017807633
5	0xbdee72f4	-0.11643019
6	0xbc1e3fd5	-0.009658773
7	0xbda36e63	-0.07980039
8	0xbc1197b5	-0.008886267
9	0xbcdebbfc	-0.027189247
10	0x39c2bffe	0.0003714561
11	0x3cffe408	0.031236663
12	0xbdad099d	-0.08449099
13	0xbd29d4d7	-0.041462746
14	0x3d1e3f3b	0.03863452
15	0xbc4e5a47	-0.012594766
16	0xbd109abc	-0.035303816
17	0xbca5fd89	-0.020262497
18	0xbc2aa895	-0.01041617
19	0x3d4537f4	0.048149064
20	0xbbc1864c	-0.005905902
21	0x3ce44eb3	0.027869558
22	0x3cf41328	0.02979429
23	0x3d23ea15	0.04001816
24	0xbcc604ad	-0.024172151
25	0xbc2ed80c	-0.010671627
26	0x3ce5b555	0.028040567
27	0xbd0b66b9	-0.03403351
28	0xbc6323b8	-0.0138634965
29	0x3cfb86c9	0.030703919
30	0xbc0b7f1e	-0.008514194
31	0xbccec559	-0.025240587
32	0x3d4c3da8	0.049863487
33	0x3ccc7aca	0.024960894
34	0xbcf03f8b	-0.029327175
35	0xbcbf78d9	-0.023373054
36	0x3d1ebabb	0.0387523
37	0xbca99303	-0.020699983
38	0xbcae6d2b	-0.02129229
39	0xbd50a92b	-0.05094258
40	0x3d12b421	0.035816316
41	0x3d33a6cc	0.04386024
42	0x3d0add8c	0.03390269
43	0xbd4652ad	-0.04841869
44	0xbb6952cf	-0.0035602336
45	0xbbdaf58d	-0.006682104
46	0xbc9c165b	-0.019053629
47	0xbd39af5e	-0.04533326
48	0xbd0c1f5d	-0.034209598
49	0x3d5ea15c	0.054353103
50	0xbd33fc1a	-0.043941595
51	0xbcaa60d8	-0.020798132
52	0xbc97da42	-0.01853669
53	0x3bba0057	0.00567631
54	0x3b4576f3	0.0030130714
55	0x3d52ce6d	0.051466394
56	0x3d78291a	0.060586073
57	0x3c7dfa84	0.015501622
58	0xbcb9eca2	-0.022695843
59	0xbcd4145a	-0.02588861
60	0xbbaad1d4	-0.0052130017
61	0xbd3ec5da	-0.046575405
62	0xbccf5f10	-0.025313884
63	0xbc4668d6	-0.012109956
64	0x3caf17e1	0.021373691
65	0xbc45c73e	-0.012071429
66	0x3d5f3907	0.054497745
67	0xbcc84a8e	-0.024449613
68	0x3d47cb53	0.04877789
69	0xbd2f088b	-0.042732757
70	0xbcdfd253	-0.02732197
71	0xbcfba843	-0.030719882
72	0xbcdc715a	-0.026909519
73	0xbc04022b	-0.0080571575
74	0xbcbab36d	-0.022790635
75	0x3d236729	0.039893303
76	0xbcac7387	-0.021051181
77	0xbb5c90d4	-0.003365566
78	0xbd1cfdeb	-0.038328093
79	0x3d585ef0	0.052824914
80	0xbcab6988	-0.020924345
81	0x3d7da30e	0.06192308
82	0xbc6ce760	-0.014459461
83	0xbc898a0d	-0.01678946
84	0x3d508d57	0.050916042
85	0x3cb6d787	0.022319568
86	0xba834ee3	-0.0010018017
87	0xbd45689b	-0.048195463
88	0xbc2182c6	-0.009857839
89	0xbc958e90	-0.018256456
90	0x3cb7d757	0.02244155
91	0x3d3cb8d4	0.046074703
92	0xbcdd0dde	-0.026984151
93	0xbce32561	-0.027727785
94	0xbd0f75c0	-0.035024405
95	0x3ca66bcb	0.020315072
96	0xbc341bfb	-0.010992999
97	0xbc904712	-0.017612014
98	0x3d536f55	0.051619846
99	0x3d0ebeaf	0.03484982
100	0xbda400e5	-0.08007983
101	0x3d04ccd4	0.0324219
102	0xbc5ae367	-0.013359881
103	0x3d165fb8	0.03671238
104	0x3d13dbb8	0.036098212
105	0xbd05eabc	-0.032694563
106	0xbd8296cc	-0.063764185
107	0xbc4af61d	-0.01238778
108	0x3d33c9ca	0.043893613
109	0x3cc55eb0	0.024093002
110	0xbba42390	-0.005009122
111	0x3c9049ca	0.01761331
112	0xbcb0e407	-0.021593107
113	0x3d68d212	0.056840964
114	0xbd121ea6	-0.03567376
115	0xbc863821	-0.016384186
116	0x3c8cbe41	0.017180564
117	0xbcd620d6	-0.026138704
118	0x3d307484	0.043079868
119	0x3d47b85f	0.048759814
120	0xbcad6863	-0.02116794
121	0xbc0c8074	-0.0085755475
122	0x3d0af292	0.03392274
123	0x3d33c31a	0.043887235
124	0xbcc0d228	-0.02353771
125	0x3ce013f7	0.02735327
126	0x3d5120ea	0.05105678
127	0x3d262240	0.040560007
128	0x3d47268a	0.048620738
129	0x3d4a201c	0.049347028
130	0x3ca091ca	0.019600768
131	0x3d168260	0.03674543
132	0x3d561014	0.052261427
133	0xbcd62379	-0.026139962
134	0x3d32b2e6	0.043627642
135	0x3d29605d	0.041351665
136	0x3d59eb8c	0.05320315
137	0xbce89237	-0.028390033
138	0x3d06a39c	0.032870874
139	0xbbaa6a16	-0.0052006347
140	0xbcea9e42	-0.028639916
141	0xbc949bf1	-0.018140765
142	0x3d6eeff9	0.058334325
143	0x3d1d10d8	0.03834614
144	0x3d959c32	0.073051825
145	0x3cecf16f	0.028923718
146	0xbd4dfbab	-0.050288837
147	0x3bbceeaf	0.005765758
148	0x3d56f2a4	0.052477494
149	0x3d837dce	0.0642048
150	0x3d22e963	0.039773356
151	0x3d09493a	0.0335171
152	0xbce4131d	-0.027841145
153	0x3d64aac5	0.05582692
154	0xbca3a64c	-0.019976757
155	0xbd4e3373	-0.050342035
156	0xbcd65eb1	-0.0261682
157	0xbd0259f0	-0.031824052
158	0xbcf205dc	-0.02954381
159	0x3d83d98a	0.06437977
160	0x3d6d938b	0.058002036
161	0x3d10289c	0.035194978
162	0x3d2dc231	0.042421523
163	0xbd1172f9	-0.035510037
164	0xbd94bc8d	-0.07262526
165	0x3d182028	0.03714004
166	0xbda67bc0	-0.08129072
167	0x3ceb3ca7	0.028715445
168	0x3d4370ce	0.047715
169	0x3d93a03d	0.072082974
170	0x3d139650	0.03603202
171	0x3d1e4b8e	0.038646273
172	0x3d2bd97f	0.041955467
173	0x3d10610f	0.035248812
174	0x3d3aa0a7	0.045563366
175	0xbcff56b9	-0.031169282
176	0xbc0918ae	-0.0083677005
177	0x3ce7a474	0.02827666
178	0xbb27fc0b	-0.0025632407
179	0x3d4ce53c	0.050023302
180	0xbcc1f9ce	-0.023678686
181	0xbc1c6dee	-0.009547694
182	0x3cb758f5	0.022381285
183	0xbd5c8e2e	-0.05384653
184	0xbc0f243f	-0.008736669
185	0xbc111594	-0.008855242
186	0xbb52648e	-0.0032103392
187	0xbd17597a	-0.036950566
188	0x3d727d53	0.05920155
189	0x3d09e0f8	0.033661813
190	0xbc384c07	-0.011248595
191	0xbc9b3bd6	-0.01894943
192	0xbceaf115	-0.02867941
193	0xbcb425e4	-0.021990724
194	0x3d63d768	0.05562535
195	0x3d401835	0.046898086
196	0x3abd93e4	0.001446363
197	0xbc6f05fd	-0.01458883
198	0x3d0fe608	0.035131484
199	0xbcefa488	-0.02925326
200	0x3cb26ca6	0.021780323
201	0x3b803124	0.003912108
202	0x3cd6d99d	0.026226813
203	0x3d4638a5	0.048393864
204	0x3ccd7ebe	0.02508485
205	0x3d0a91db	0.033830505
206	0x3d658905	0.056038875
207	0x3d36ab07	0.044596698
208	0xbc21f0e4	-0.009884093
209	0xbcfd67f4	-0.030933358
210	0xbd0e1bf0	-0.034694612
211	0xbd06843f	-0.032840963
212	0x3bd7b7a8	0.006583173
213	0x3d5eb66a	0.054373182
214	0x3d262e88	0.04057172
215	0xbc7e3cb9	-0.015517407
216	0x3cac439b	0.02102833
217	0xbc64f459	-0.013974273
218	0xbcc44ab3	-0.0239614
219	0xbc429c7c	-0.011878129
220	0xbc200b4e	-0.00976832
221	0xbd5ca0d1	-0.053864304
222	0xbbd49182	-0.0064870724
223	0xbcc618bf	-0.024181722
224	0x3d380fc4	0.04493691
225	0xbc8b6fc4	-0.017021067
226	0xbd082c3c	-0.03324531
227	0xbd1de70d	-0.038550425
228	0x3cd602d2	0.026124392
229	0x3d5c02e6	0.0537137
230	0xbd24d1c3	-0.040239107
231	0xbb427d22	-0.0029676636
232	0xbd5040d5	-0.05084308
233	0x3d77df64	0.060515776
234	0xbc4f7af7	-0.012663594
235	0x3d611a85	0.05495693
236	0xbce3b2f7	-0.027795298
237	0xbcb39af8	-0.02192448
238	0x3d03a0a2	0.032135613
239	0xbd0100be	-0.03149485
240	0xbd2c797b	-0.04210804
241	0xbc08a76f	-0.0083407005
242	0xbd770603	-0.060308468
243	0xbc8a1fa7	-0.016860796
244	0x3d123fe5	0.035705466
245	0xbc667971	-0.01406704
246	0x3cc22265	0.023698041
247	0x3d782c98	0.060589403
248	0xbcc1fec8	-0.02368106
249	0x3d568e29	0.05238167
250	0x3bccf73f	0.00625506
251	0x3c20a471	0.009804831
252	0x3c0e9b24	0.008703981
253	0xbd2af278	-0.041735142
254	0xbbaddfd3	-0.005306223
255	0x3d83fc66	0.064446256

model/stage1/block1/relu_1x1conv_1/Relu;model/stage1/block1/bn_1x1conv_1/FusedBatchNormV3;model/stage1/block1/1x1conv_1/BiasAdd/ReadVariableOp;model/stage1/block1/1x1conv_1/BiasAdd;model/stage1/block1/3x3dwconv/depthwise;model/stage1/block1/1x1conv_1/Conv2D f4 [9]
0	0xbf05608e	-0.52100456
1	0xbf42a137	-0.76027244
2	0xbfbfef8e	-1.4994981
3	0xbfcda947	-1.6067284
4	0x3fa66732	1.3000243
5	0x3f81096e	1.0081003
6	0xbf660aea	-0.89860404
7	0xbfbdf889	-1.4841472
8	0xbfe85d5b	-1.815349

model/stage1/block1/bn_3x3dwconv_2/FusedBatchNormV3;model/stage1/block1/3x3dwconv_2/depthwise;model/stage1/block1/3x3dwconv_2/BiasAdd;model/stage1/block2/3x3dwconv/depthwise;model/stage1/block1/3x3dwconv_2/BiasAdd/ReadVariableOp1 f4 [1, 3, 3, 6]
0	0x4096df20	4.714737
1	0x40a2a54f	5.0826793
2	0x3feb5a9f	1.838703
3	0x3f5baa59	0.85806805
4	0xbedc9311	-0.43080953
5	0xbfe41fa2	-1.7822154
6	0xbf06b381	-0.5261765
7	0xc01fd500	-2.4973755
8	0x40042e75	2.0653355
9	0xbe98eebb	-0.29869637
10	0x3f3bf0ce	0.73414314
11	0x3f2f3138	0.68434477
12	0x3f9b33c0	1.2125168
13	0x3f893e2c	1.0722098
14	0xbfbd0dc3	-1.4769825
15	0xbfe5ca85	-1.7952429
16	0x3f9a39b1	1.2048856
17	0xbf92a537	-1.145667
18	0x3f1f3fd1	0.6220675
19	0x40631214	3.5479784
20	0xc00208ca	-2.0317864
21	0xbf7e819d	-0.99416524
22	0xbfa5f9f7	-1.2966908
23	0x404ce8a3	3.201699
24	0xc085897a	-4.173032
25	0xbdeade98	-0.11468238
26	0x4048b6f4	3.1361666
27	0xc0113721	-2.2689898
28	0xbf9904b8	-1.1954565
29	0xbf80ada0	-1.0052986
30	0x4045bdca	3.0897088
31	0x41112adf	9.072967
32	0x3f0377de	0.5135478
33	0xc00df2c0	-2.2179413
34	0xbf3b505a	-0.7316948
35	0x3f8117d6	1.0085399
36	0x3fb95b5b	1.4481004
37	0x405ad2af	3.419109
38	0x3f17c38e	0.5928277
39	0x3f8f5ef9	1.1200858
40	0xbf404f37	-0.7512087
41	0x3e188aaa	0.14896646
42	0x40872364	4.22307
43	0x3fb746ea	1.4318516
44	0xc03756bf	-2.8646696
45	0xbf7e3094	-0.99292874
46	0x3e28bdf7	0.16478716
47	0x4013b298	2.3077755
48	0x3f55354f	0.8328447
49	0x3f869ece	1.0517213
50	0xbdce98fe	-0.10087775
51	0xc0210762	-2.5160756
52	0xbf09995f	-0.5374965
53	0x40417357	3.0226648

model/stage1/block1/bn_3x3dwconv/FusedBatchNormV3;model/stage1/block1/3x3dwconv/depthwise;model/stage1/block1/3x3dwconv/BiasAdd;model/stage1/block1/3x3dwconv/BiasAdd/ReadVariableOp1 f4 [1, 3, 3, 9]
0	0xbda95272	-0.08267678
1	0x3f3313c1	0.6995202
2	0xc00c6e51	-2.1942332
3	0xbf0695b3	-0.5257217
4	0xbf3dd716	-0.7415632
5	0xbe84726b	-0.25868544
6	0x3f8418b0	1.0320034
7	0xbf94f680	-1.1637726
8	0xbceec5fd	-0.029147143
9	0xbf3e4ff0	-0.74340725
10	0x3f3c8c79	0.73651844
11	0x3decc542	0.115610614
12	0x3e8966f1	0.2683635
13	0x3fdf987a	1.7468407
14	0xbf3cff66	-0.7382721
15	0x3f6972a8	0.91190577
16	0xbeb56510	-0.35428667
17	0x3f613deb	0.87985104
18	0x3f15c4c3	0.5850336
19	0xbf88532d	-1.0650383
20	0x3fa17acf	1.2615603
21	0x3ff85ec7	1.9403924
22	0x3e03dc2e	0.1287696
23	0x3f0a29c5	0.53969985
24	0x3f38be1e	0.72165096
25	0x3f2c67a4	0.67345643
26	0x3e58bbdb	0.21165411
27	0xbee86d78	-0.45396018
28	0x3f7f9cf0	0.9984884
29	0x40050b4c	2.0788145
30	0x3ec733df	0.38906762
31	0x3f8d757f	1.1051482
32	0x3f39a856	0.72522485
33	0x3e4a8c5d	0.19780107
34	0x3e885afd	0.2663192
35	0xbfb6fed1	-1.4296514
36	0xbf135d1f	-0.57563967
37	0x3ea23808	0.31683373
38	0x3ce10cd1	0.027471932
39	0x3e332b29	0.17496933
40	0xbffc41bf	-1.9707564
41	0xbf46b889	-0.7762533
42	0x3f244c1c	0.64178634
43	0x3f4382d7	0.7637152
44	0x3fd06a33	1.628241
45	0xbea56b15	-0.3230826
46	0xbfaaf9e8	-1.3357515
47	0x3f02bdc6	0.5107082
48	0xbd216288	-0.039400607
49	0xbf9de31e	-1.2334936
50	0xbe96f273	-0.2948185
51	0x3dedc94f	0.11610662
52	0xbef4083e	-0.47662538
53	0x3f1c6cc5	0.6110347
54	0x3eed85ba	0.46391088
55	0x3e0f1ef7	0.13976656
56	0x3d8cf39f	0.068824045
57	0x3e6643e4	0.22486836
58	0xbe15d96e	-0.14633724
59	0x3f9ecf06	1.2406929
60	0x3dcaa4a8	0.09894687
61	0x3effe69f	0.49980637
62	0xbed07408	-0.40713525
63	0x3f558557	0.83406585
64	0x3d85a667	0.06525879
65	0x3fc03c33	1.5018371
66	0x3f697cab	0.91205853
67	0x3eb87654	0.36027777
68	0xbe4d2d83	-0.20036893
69	0x3e21cf96	0.15801844
70	0x3ec377d2	0.38177353
71	0x3f3a351c	0.7273729
72	0x3f151645	0.58237106
73	0x3f9556e1	1.1667138
74	0xbf500051	-0.8125048
75	0xbf1e5782	-0.61852276
76	0x3ea9e2cc	0.33180845
77	0x3edfe9ca	0.43733054
78	0xbd344297	-0.044008818
79	0x3f58f4a0	0.8474827
80	0x3f87c85e	1.0608022

model/stage1/block2/relu_1x1conv_1/Relu;model/stage1/block2/bn_1x1conv_1/FusedBatchNormV3;model/stage1/block2/1x1conv_1/BiasAdd/ReadVariableOp;model/stage1/block2/1x1conv_1/BiasAdd;model/stage1/block2/3x3dwconv/depthwise;model/stage1/block2/1x1conv_1/Conv2D f4 [6]
0	0xbf293e88	-0.6611104
1	0xbcf3ae33	-0.02974615
2	0xbdbbc1e0	-0.09167838
3	0xbe5f0ab6	-0.2178143
4	0xbea43c90	-0.32077456
5	0xbea1464b	-0.31498942

model/stage1/block2/bn_3x3dwconv/FusedBatchNormV3;model/stage1/block2/3x3dwconv/depthwise;model/stage1/block2/3x3dwconv/BiasAdd;model/stage1/block2/3x3dwconv/BiasAdd/ReadVariableOp1 f4 [1, 3, 3, 6]
0	0xbf8701fa	-1.0547478
1	0x3cb53996	0.022122186
2	0x3f672ba0	0.9030094
3	0x3eb9c940	0.36286354
4	0x3e4854d0	0.19563603
5	0x3de0adc0	0.1097064
6	0x3f9734ac	1.1812949
7	0xbf24f5da	-0.6443764
8	0xbd4596c6	-0.048239492
9	0x3ed9ac79	0.425144
10	0xbfb83cef	-1.4393595
11	0xbecb7b36	-0.3974244
12	0xbff209a5	-1.8909193
13	0x3f11c187	0.56935924
14	0xbf2c2244	-0.67239785
15	0x3f488da9	0.78341156
16	0x3f1a01ec	0.6015918
17	0xbf0f8600	-0.5606384
18	0x3eb5b7c9	0.3549178
19	0x3f28ec6a	0.6598574
20	0x3f45b156	0.7722372
21	0xbf4615a5	-0.77376777
22	0x3f46267b	0.77402467
23	0x3e5e04a9	0.21681465
24	0x3e9fa590	0.31181002
25	0x3f603aef	0.87589926
26	0xbec8109c	-0.39075172
27	0x3ee3ea10	0.44514513
28	0x3f4422c9	0.7661558
29	0xbf1dcf26	-0.6164421
30	0x3f2341c8	0.6377225
31	0xbdd7ac00	-0.10530853
32	0xbeaee300	-0.34157562
33	0x3efd754e	0.4950356
34	0xbf18561d	-0.595064
35	0xbe7662a3	-0.24061064
36	0xbf4cd501	-0.8001252
37	0x3e6a1a30	0.22861552
38	0x3f732d61	0.9499112
39	0xbf902596	-1.126147
40	0xbcc1a572	-0.02363846
41	0xbf1cdc15	-0.6127332
42	0x3eaf7a08	0.3427279
43	0xbf19e7bb	-0.6011922
44	0xbf33caeb	-0.70231503
45	0xbb32379f	-0.0027193797
46	0xbf8708a0	-1.0549507
47	0x3df4d7be	0.11955212
48	0x3fd21eb9	1.6415626
49	0x3e83cea1	0.25743583
50	0x3eb67f32	0.35643917
51	0x3f336122	0.7007009
52	0x3d840503	0.064462684
53	0x3d567b7d	0.05236386

model/stage2/block1/relu_1x1conv_1/Relu;model/stage2/block1/bn_1x1conv_1/FusedBatchNormV3;model/stage2/block1/1x1conv_1/BiasAdd/ReadVariableOp;model/stage2/block1/1x1conv_1/BiasAdd;model/stage2/block1/3x3dwconv/depthwise;model/stage2/block1/1x1conv_1/Conv2D f4 [52]
0	0x3e4f7928	0.20261061
1	0xbebb29db	-0.3655537
2	0xbde6d829	-0.11271698
3	0xbeefe677	-0.46855518
4	0x3ea5782a	0.3231824
5	0xbce8fa1e	-0.028439578
6	0x3db1c1f4	0.08679572
7	0x3e2fdcd3	0.17174082
8	0xbd7c6436	-0.061619006
9	0xbe2e5d68	-0.17027819
10	0x3e36e864	0.17862087
11	0x3f0fdc61	0.56195647
12	0xbf7f52e8	-0.9973588
13	0xbf3d55a7	-0.7395882
14	0x3e6ebc8f	0.23314117
15	0xbed240fe	-0.4106521
16	0xbde16ae1	-0.11006714
17	0xbe26aef2	-0.16277674
18	0xbf5c0613	-0.8594677
19	0x3f36642b	0.71246594
20	0xbb37e19c	-0.0028058058
21	0x3ddf6950	0.10908759
22	0xbd13c046	-0.036072038
23	0xbe242490	-0.16029572
24	0xbf600940	-0.87514114
25	0x3e4eaa19	0.20182075
26	0xbe83fd63	-0.25779256
27	0xbe84b4ac	-0.25919092
28	0xbe3c3276	-0.18378624
29	0x3e8db5e1	0.27677825
30	0x3e305e8b	0.17223565
31	0xbef0d13f	-0.47034642
32	0xbe6d7a49	-0.2319118
33	0xbf86a675	-1.0519549
34	0x3f457e42	0.7714578
35	0xbe18f351	-0.14936568
36	0x3e38d685	0.18050583
37	0x3f82773f	1.0192641
38	0x3f171d26	0.5902885
39	0xbe61075e	-0.21975467
40	0x3eb4083f	0.3516254
41	0xbe092b5e	-0.1339545
42	0x3f210c4a	0.62909377
43	0xbec5fd76	-0.38669938
44	0x3f5d6214	0.8647778
45	0x3ecfa786	0.40557498
46	0x3e0ad43e	0.13557526
47	0x3eeda03d	0.46411315
48	0xbef1be4a	-0.47215492
49	0xbebe22fc	-0.37136066
50	0xbf848dd3	-1.0355781
51	0x3ec22379	0.37917688

model/stage2/block1/bn_3x3dwconv_2/FusedBatchNormV3;model/stage2/block1/3x3dwconv_2/depthwise;model/stage2/block1/3x3dwconv_2/BiasAdd;model/stage2/block1/3x3dwconv_2/BiasAdd/ReadVariableOp1 f4 [1, 3, 3, 24]
0	0xbd64c13d	-0.05584835
1	0x3e803ee6	0.25047988
2	0xbe458342	-0.19288352
3	0x3ea4c77a	0.3218344
4	0x3ea4d51c	0.3219384
5	0x3f40bcb2	0.75287926
6	0x3ee52ca3	0.44760618
7	0xbf0bd5ed	-0.546233
8	0x3dc037e1	0.09385658
9	0xbddfa610	-0.10920346
10	0x3f0926ad	0.5357464
11	0x3f174ee0	0.5910473
12	0x3d02f2a1	0.03196967
13	0xbec556a3	-0.3854266
14	0xbeaf3278	-0.34218192
15	0xbe147212	-0.1449664
16	0xbeb48b0e	-0.3526234
17	0xbed54840	-0.41656685
18	0xbed06c32	-0.40707546
19	0xbef242d4	-0.4731661
20	0x3e330043	0.17480569
21	0xbf4cdb0c	-0.8002174
22	0xbefa6a2a	-0.48909122
23	0xbcf3d1e8	-0.029763177
24	0xbecacf0d	-0.39611092
25	0x3f059e28	0.5219445
26	0xbe0d55e5	-0.13802297
27	0x3e272353	0.16322069
28	0x3e5eeee4	0.21770817
29	0xbe898ded	-0.26866093
30	0xbcb8740b	-0.022516271
31	0x3eee6d78	0.46567893
32	0xbf03c576	-0.51473176
33	0xbfdf2982	-1.7434542
34	0x3f0ac724	0.54210114
35	0xbf3e7dfb	-0.7441098
36	0x3f23abd2	0.6393405
37	0x3f5e833c	0.86919
38	0x3aaed6e2	0.0013339187
39	0xbe2b4e92	-0.16729191
40	0x3e0d18e5	0.13779028
41	0xbc9d87c3	-0.019229775
42	0xbd4f73c7	-0.050647523
43	0x3e9046b5	0.28178945
44	0x3e85c3af	0.26125857
45	0x3fcf27e5	1.618405
46	0x3e16e9fe	0.14737698
47	0x3ea287fb	0.3174437
48	0xbe69f17d	-0.22846027
49	0xbecf1904	-0.40448773
50	0x3e58a404	0.21156317
51	0x3da0cacb	0.0785118
52	0xbe34d9b0	-0.17661166
53	0x3fb2765c	1.394237
54	0xbf6a741c	-0.9158342
55	0x3e12729b	0.14301531
56	0x3f3577b0	0.70885754
57	0xbf9635cc	-1.1735168
58	0xbe30f05c	-0.1727919
59	0x3d992aa5	0.07478837
60	0xbe91cd75	-0.28477064
61	0x3f806728	1.0031481
62	0xbe8f90e7	-0.2804024
63	0x3e307412	0.17231777
64	0xbeeaf65d	-0.45891085
65	0x3debfc2d	0.11522708
66	0xbf1f415a	-0.62209094
67	0xbdefabbb	-0.11702677
68	0xbe912c11	-0.28353932
69	0xbf43f899	-0.76551205
70	0x3f3ea5b2	0.7447158
71	0x3e8f3150	0.2796731
72	0xbbf3695f	-0.0074283327
73	0x3f5a64a6	0.8530983
74	0xbeee027a	-0.46486264
75	0x3e0ede94	0.13952094
76	0xbf892b97	-1.0716428
77	0x3fc63eca	1.5487912
78	0xbf4e576d	-0.8060215
79	0x3f1b7ff0	0.6074209
80	0xbf1f626b	-0.6225955
81	0x3f6a8012	0.9160167
82	0xbda8be93	-0.08239474
83	0xbdfeb157	-0.12436169
84	0xbebe0fe9	-0.37121513
85	0xbf42117c	-0.7580793
86	0x3e4a97a1	0.19784404
87	0xbe5fa60c	-0.21840686
88	0x3f33b489	0.7019735
89	0x3eba4eff	0.36388394
90	0xbdd4fb31	-0.103994735
91	0xbe220e2e	-0.15825722
92	0x3eb11259	0.3458431
93	0x3f962b2e	1.1731927
94	0x3e4f7fb8	0.20263565
95	0xbd3687a7	-0.044562962
96	0x3f2f2670	0.68418026
97	0x3f0b135e	0.54326427
98	0xbcf077b5	-0.029353956
99	0x3dfa7b9d	0.122306086
100	0x3f1391d8	0.57644415
101	0xbfb6ffa9	-1.4296771
102	0x3e75f467	0.24019013
103	0xbe0a5c2f	-0.13511728
104	0xbe4f485a	-0.20242444
105	0x3ee7c0c6	0.45264262
106	0x3ef6d875	0.4821202
107	0xbf313ce5	-0.6923354
108	0x3ee408ac	0.44537866
109	0xbef13e4f	-0.4711785
110	0xbe7bb59f	-0.24581002
111	0x3e58c6e5	0.21169622
112	0x3e560c78	0.20903194
113	0xba47ed6b	-0.00076266256
114	0x3d6b1ec5	0.05740239
115	0xbf0891be	-0.53347385
116	0xbf164432	-0.5869781
117	0xbf840c5d	-1.0316273
118	0x3eb1dfb5	0.34740987
119	0xbe2d9dcb	-0.16954724
120	0x3ec661b2	0.3874641
121	0x3f50dbc6	0.8158535
122	0xbe1ada59	-0.15122356
123	0xbea39732	-0.3195129
124	0xbdab438d	-0.08362494
125	0xbf319b25	-0.69377357
126	0xbf481ab1	-0.7816573
127	0xbedde331	-0.43337396
128	0x3f12ab48	0.57292604
129	0xbed3d378	-0.41372275
130	0xbf17f2e9	-0.59355026
131	0x3ed37512	0.41300255
132	0x3e7d889b	0.24759142
133	0x3fe4ab72	1.7864821
134	0xbf5e99ad	-0.8695324
135	0x3eb83201	0.3597565
136	0x3e688798	0.22707975
137	0xbe321ebe	-0.1739454
138	0x3ebd0ef1	0.36925462
139	0x3f0a44cf	0.54011244
140	0xbe8685bf	-0.26273915
141	0x3dcd6fe2	0.100311056
142	0xbd57d038	-0.052688807
143	0xbe92d7fd	-0.2868041
144	0x3ed2bea3	0.4116107
145	0xbda10ec8	-0.078641474
146	0xbed00af8	-0.40633368
147	0x3ea17191	0.31531957
148	0xbe19de19	-0.1502613
149	0xbfa50689	-1.2892619
150	0xbf518e9f	-0.8185825
151	0xbdba9b12	-0.091116086
152	0x3f431deb	0.76217526
153	0x3f0729b3	0.52798
154	0xbf08c755	-0.53429157
155	0xbf87da97	-1.0613583
156	0xbf11e07f	-0.5698318
157	0xbf08e00e	-0.5346688
158	0x3e225b38	0.1585511
159	0x3e787550	0.24263501
160	0x3ec6de3e	0.38841432
161	0x3f5a1d7a	0.8520123
162	0x3e70ec40	0.23527622
163	0x3df0cc38	0.11757702
164	0x3d0de51d	0.034642328
165	0xbf13f17b	-0.57790345
166	0xbe046b12	-0.12931469
167	0xbf0dfa78	-0.5546031
168	0x3f8e2ff8	1.1108389
169	0xbea12427	-0.31472895
170	0xbafe4ed0	-0.001940215
171	0x3e3428e9	0.17593731
172	0xbf2465b9	-0.64217716
173	0xbff1f111	-1.8901693
174	0x3dfb01e6	0.122562215
175	0x3eddbfd9	0.4331043
176	0x3f74fdda	0.95699847
177	0xbeffbeaa	-0.49950153
178	0xbe9cd9c7	-0.306349
179	0x3dce34b6	0.100686476
180	0x3e910a34	0.28328097
181	0x3f55d67c	0.835304
182	0x3e03d165	0.12872846
183	0x3df51ba3	0.11968162
184	0xbd49eca7	-0.049297955
185	0x3e3bdfd2	0.183471
186	0x3f1b44f0	0.60652065
187	0x3cdff967	0.027340604
188	0x3ea896de	0.32927603
189	0x3e93fe79	0.28905085
190	0xbd661e36	-0.056181155
191	0xbecae80b	-0.3963016
192	0x3e5b89bf	0.21439265
193	0x3ec3a123	0.38208875
194	0xbe647a12	-0.22312191
195	0x3eaa4ba9	0.3326085
196	0xbf0608ec	-0.52357364
197	0x3f615578	0.8802104
198	0x3f27c054	0.65527844
199	0xbf13c455	-0.57721454
200	0xbf7eb379	-0.99492604
201	0x3ec07373	0.3758808
202	0xbebb8dda	-0.36631662
203	0x3e5a345f	0.2130904
204	0xbed7e2c4	-0.42165196
205	0xbe702ade	-0.23453853
206	0x3f167a9d	0.58780843
207	0x3ea2795b	0.31733212
208	0xbea49cab	-0.32150778
209	0x3f8954f9	1.0729057
210	0x3f282cf2	0.6569358
211	0x3f8fc90c	1.123323
212	0xbe9e9424	-0.30972397
213	0x3eb65b6a	0.35616618
214	0x3eae8c87	0.3409159
215	0xbe97b247	-0.29628202

model/stage2/block1/bn_3x3dwconv/FusedBatchNormV3;model/stage2/block1/3x3dwconv/depthwise;model/stage2/block1/3x3dwconv/BiasAdd;model/stage2/block1/3x3dwconv/BiasAdd/ReadVariableOp1 f4 [1, 3, 3, 52]
0	0xbeb99162	-0.3624373
1	0xbec827c2	-0.39092833
2	0x3d6ce76a	0.05783788
3	0xbfa8c70d	-1.3185745
4	0xbf936e1a	-1.1517975
5	0x3e7451ab	0.23859279
6	0x3f7278af	0.947154
7	0xc008e0fe	-2.1387324
8	0xbdf159d6	-0.11784713
9	0x3f1af71a	0.605333
10	0x3fe44bf9	1.7835685
11	0x3e8dce8c	0.27696645
12	0xbf4f5c96	-0.8100065
13	0xbd0b9696	-0.034079157
14	0x3f1a7bd2	0.60345185
15	0x3e82d5b9	0.25553682
16	0x3e5a9700	0.21346664
17	0x3fa419db	1.282039
18	0xbe2d7038	-0.1693734
19	0x3e81b613	0.25334224
20	0xbea223d4	-0.3166796
21	0xc05b56cd	-3.427173
22	0x3f53656c	0.8257663
23	0xbe214faf	-0.15753053
24	0xbc3bd1b9	-0.011463576
25	0x3d6db949	0.05803803
26	0xbd86a865	-0.065750875
27	0x3e35ed9d	0.17766424
28	0x3fd91add	1.6961323
29	0xbed99a56	-0.4250056
30	0xbf8d7bb7	-1.105338
31	0x3d611721	0.054953698
32	0xbd9a16af	-0.07523858
33	0xbe65cbdd	-0.22441049
34	0xbe6c37e7	-0.230682
35	0xbce48a45	-0.027897963
36	0xbedd9794	-0.43279707
37	0xbcea031d	-0.028565938
38	0x3f37deba	0.7182423
39	0xbe88912f	-0.26673266
40	0x3e255e80	0.1614933
41	0x3ebb84c0	0.36624718
42	0x3eb44d47	0.35215208
43	0x3fb8ffcb	1.4453062
44	0x3e872552	0.2639566
45	0x3f34778a	0.704949
46	0x3fb6876e	1.426008
47	0xbec32192	-0.3811155
48	0xbe103476	-0.14082512
49	0x3f3e4f11	0.74339396
50	0xbd471b5c	-0.048610076
51	0xbf1c5166	-0.61061704
52	0xbeddfd8f	-0.43357512
53	0x3f5ef4fb	0.8709256
54	0xbe630e70	-0.22173476
55	0xbe01716d	-0.12640925
56	0x3f15aacc	0.5846374
57	0xbf497cf2	-0.78706276
58	0xbf4f66fd	-0.8101652
59	0xbf54daaf	-0.83146185
60	0xbe63b851	-0.2223828
61	0x3efcc6cf	0.4937043
62	0x3f9366c6	1.1515739
63	0xbdfaac90	-0.12239945
64	0xbd5feca8	-0.054669052
65	0xbea688bb	-0.32526192
66	0xbe5a2f2d	-0.21307059
67	0xbf71510c	-0.9426429
68	0xbf3d6a4f	-0.7399034
69	0xc01007bb	-2.2504718
70	0xbdee7794	-0.116439015
71	0x3fa9cd89	1.3265849
72	0xbe8732b3	-0.26405868
73	0xbfee3ffa	-1.8613274
74	0x400e7481	2.2258608
75	0x3edd77f9	0.43255594
76	0x3c473f92	0.012161152
77	0xbefb5ad1	-0.49092725
78	0x3f08975c	0.53355956
79	0x3e927fc3	0.286131
80	0x3e85d680	0.26140213
81	0xbf2539ab	-0.6454112
82	0x3f02bec2	0.51072323
83	0x3e3d8eef	0.18511556
84	0xbdb5c52b	-0.088754974
85	0xbe96213f	-0.2932224
86	0xbf4187ec	-0.75598025
87	0x3e975680	0.29558182
88	0x3feddaae	1.8582361
89	0x3bb11383	0.0054039373
90	0x3efe819b	0.49708256
91	0x3e9e140b	0.30874667
92	0x3f3b28cb	0.7310912
93	0x3dbe234b	0.09284075
94	0x3f520772	0.8204261
95	0x3ef2a275	0.4738957
96	0x3d097a9e	0.033564202
97	0x3f901326	1.1255844
98	0xc01584cd	-2.3362305
99	0x3fd22ac2	1.6419299
100	0x3ea69a07	0.3253939
101	0x3e81bc05	0.2533876
102	0xbfeefafb	-1.8670343
103	0xbf5abbdd	-0.85442907
104	0xbf41c4ae	-0.75690734
105	0xbcc37ea5	-0.0238641
106	0x4020ba56	2.511373
107	0xbe201797	-0.15633999
108	0x3f754e22	0.95822346
109	0x3f8d82f0	1.1055584
110	0xbeb42cc9	-0.35190418
111	0x3e8037d0	0.25042582
112	0xbf9b8913	-1.2151207
113	0xbfb48586	-1.4103248
114	0xbfb23394	-1.392199
115	0x3eccb1bb	0.39979348
116	0x3f55ab16	0.8346418
117	0xbf41eec9	-0.7575498
118	0x3eafb540	0.3431797
119	0xbe8dce64	-0.27696526
120	0xbee43dd1	-0.44578412
121	0xc07b6882	-3.9282537
122	0x3e9615cf	0.29313514
123	0xbf350a6f	-0.70719045
124	0x3e6a335d	0.22871156
125	0xc0a8d8cd	-5.276465
126	0x4023de7a	2.560454
127	0xbe4519a4	-0.19248062
128	0x3eb41672	0.35173374
129	0x3f0922e3	0.5356886
130	0x3e54e450	0.2079022
131	0x3c5a1469	0.01331053
132	0xbeb499e6	-0.35273665
133	0xbef18901	-0.47174838
134	0x3fc297a2	1.5202525
135	0x3da441b9	0.08020348
136	0x3e8c10e7	0.27356645
137	0xbf4511e9	-0.76980454
138	0xbfabceb7	-1.3422459
139	0x3edfd872	0.43719822
140	0x3c194a5d	0.0093561085
141	0x3ef83fe3	0.48486242
142	0x3e611f5f	0.21984623
143	0xbebb783e	-0.36615175
144	0xbfa10343	-1.257912
145	0x3d3b35a4	0.045705453
146	0xbe901952	-0.28144318
147	0x3e1ba5f9	0.15200032
148	0xbe833b65	-0.25631252
149	0x3db84e84	0.08999351
150	0x3f4d4fbf	0.8019981
151	0xbffeb578	-1.989913
152	0x3db91a10	0.09038174
153	0x3f92182f	1.141363
154	0xbdd91ccb	-0.10601195
155	0x3f0b381e	0.54382503
156	0x3f2e79b2	0.6815444
157	0xbe8c2106	-0.27368945
158	0x3eb2a7e1	0.34893706
159	0x3f1b3caa	0.6063944
160	0x3ed1067b	0.40825257
161	0x3f3bfd6b	0.7343356
162	0x3f923264	1.1421628
163	0xbf938ddd	-1.1527668
164	0xbf6233b3	-0.88360137
165	0xbe94ad4b	-0.29038462
166	0xbfdc89e0	-1.7229576
167	0x3f84ecf7	1.0384816
168	0xbed03a4d	-0.4066948
169	0xbcefa598	-0.029253766
170	0x3dfd005e	0.12353586
171	0x3f4dcf89	0.803948
172	0xbf74b278	-0.9558482
173	0x3ffd9c79	1.9813377
174	0xbfaea3c9	-1.3643733
175	0xbfb2de19	-1.3974029
176	0xbfb4ac14	-1.4115014
177	0x40005885	2.0054028
178	0x3e8c0b47	0.27352354
179	0x3f5e6cb9	0.8688465
180	0xbef3aaee	-0.47591347
181	0x3da13967	0.07872277
182	0xbd16230f	-0.03665453
183	0xbed933a7	-0.4242222
184	0x3fc8e454	1.569468
185	0xbfbf9d9b	-1.4969972
186	0xbf17afbc	-0.59252524
187	0x3ea795dd	0.32731524
188	0xbf693ae3	-0.9110548
189	0x3e2deb3a	0.16984263
190	0x3f1eed49	0.6208082
191	0x3dba678e	0.09101783
192	0xbf1fed97	-0.6247191
193	0x3ea3025c	0.31837738
194	0x3e056a5e	0.13028857
195	0x3f0863cb	0.5327727
196	0x3eb7bb7d	0.3588523
197	0x3c6b3bd2	0.014357524
198	0x3e29aa99	0.16568984
199	0xbef089b2	-0.46980053
200	0x3efe596b	0.49677595
201	0x3e931bd6	0.28732175
202	0x401513c1	2.3293307
203	0xbec17062	-0.37781054
204	0x3f052346	0.5200695
205	0x3f16461a	0.58700716
206	0x3ea7421f	0.32667634
207	0x3ef160da	0.47144204
208	0xbee07315	-0.438378
209	0xbea1a5fa	-0.31571943
210	0xbf631805	-0.88708526
211	0xbe1a7bc2	-0.15086272
212	0x3e8856b1	0.2662864
213	0xbfc7a8ae	-1.5598352
214	0xbe35c9cb	-0.17752759
215	0x3ef558a2	0.47919184
216	0x3df35bdd	0.11882756
217	0x3d2dfd7b	0.042478066
218	0xbe77db7a	-0.24204817
219	0xbe8cbf6f	-0.27489802
220	0xbf55e105	-0.8354648
221	0xbf07d732	-0.53062737
222	0xbf0ecf4f	-0.5578508
223	0x3f5b8624	0.8575156
224	0xbf9e11cc	-1.2349181
225	0x3f7fca41	0.9991799
226	0xbfd79631	-1.684271
227	0xbf5d4e35	-0.8644746
228	0xbf683ba6	-0.90716016
229	0x405b2899	3.424353
230	0x3e818811	0.25299123
231	0x3f56ccbe	0.8390616
232	0xbf487962	-0.78310215
233	0xbd5c14fe	-0.053730957
234	0x3a99cc98	0.0011733947
235	0xbeda91cd	-0.42689362
236	0x3f335f24	0.7006705
237	0xbfbdc911	-1.4826986
238	0x3f901347	1.1255883
239	0x3f29da13	0.6634838
240	0xbf273967	-0.65321964
241	0xbf42d6c9	-0.76108986
242	0x3e2b0d8d	0.16704388
243	0x3f8731e3	1.0562099
244	0xbf02614e	-0.50929725
245	0x3f058771	0.5215979
246	0xbedb952a	-0.4288724
247	0x3f78f31f	0.97245973
248	0x3fafbe4f	1.3729953
249	0x3ef8c923	0.48590955
250	0x3f049dc5	0.5180324
251	0xbd89f6ba	-0.067365125
252	0x3dd30374	0.10303393
253	0x3e834375	0.25637403
254	0x3bb43993	0.0055000274
255	0x3ef15614	0.47135985

model/stage2/block2/relu_1x1conv_1/Relu;model/stage2/block2/bn_1x1conv_1/FusedBatchNormV3;model/stage2/block2/1x1conv_1/BiasAdd/ReadVariableOp;model/stage2/block2/1x1conv_1/BiasAdd;model/stage2/block2/3x3dwconv/depthwise;model/stage2/block2/1x1conv_1/Conv2D f4 [32]
0	0xbeb78ffb	-0.35852036
1	0xbe07c228	-0.13257658
2	0x3d7457c2	0.059654005
3	0xbf119d85	-0.5688098
4	0x3e43de8c	0.19127864
5	0xbe46a62e	-0.1939933
6	0xbd2c552f	-0.042073425
7	0x3c3f382e	0.011671109
8	0x3eb5948e	0.354649
9	0xbe4f1913	-0.20224409
10	0xbe53f4f5	-0.20698912
11	0xbe1ede47	-0.1551448
12	0xbe297807	-0.16549693
13	0xbe760b28	-0.24027693
14	0x3e2f3ec0	0.17113781
15	0xbf6923f2	-0.91070473
16	0xbe8f425c	-0.27980316
17	0x3e606994	0.21915275
18	0xbee20f8a	-0.4415248
19	0xbd35805a	-0.04431186
20	0xbe928644	-0.28618062
21	0xbe77b691	-0.24190737
22	0x3e418ff8	0.18902576
23	0xbcaee61f	-0.021349965
24	0x3df538ed	0.11973748
25	0xbdc43ae4	-0.09581545
26	0xbe7f2a6d	-0.24918528
27	0xbe517556	-0.20454916
28	0xbdf80713	-0.12110724
29	0x3e897adf	0.26851556
30	0xbe137838	-0.14401329
31	0xbe952859	-0.29132345

model/stage2/block2/bn_3x3dwconv/FusedBatchNormV3;model/stage2/block2/3x3dwconv/depthwise;model/stage2/block2/3x3dwconv/BiasAdd;model/stage2/block2/3x3dwconv/BiasAdd/ReadVariableOp1 f4 [1, 3, 3, 32]
0	0x4021eb94	2.5300035
1	0xbf78f79c	-0.9725282
2	0x40282198	2.6270504
3	0xbfe2bb39	-1.7713386
4	0xbe7717eb	-0.24130218
5	0x3f921801	1.1413575
6	0xbe7b87ee	-0.24563572
7	0x3f9f9135	1.2466189
8	0x3f547af4	0.8300011
9	0x3eca8c78	0.39560294
10	0x3f7401fa	0.95315516
11	0x3ee675b2	0.4501167
12	0xbdf186d9	-0.11793298
13	0x3fb10588	1.3829813
14	0xbd85b7d5	-0.06529204
15	0xbdfc0fa2	-0.12307669
16	0xbf934dfd	-1.1508175
17	0xbe1d98f6	-0.15390381
18	0x3eb4e21b	0.35328755
19	0x3e2c3035	0.16815265
20	0x3f45bfce	0.77245796
21	0xbef02b31	-0.46907952
22	0x3f19d082	0.6008378
23	0xbfab0c5c	-1.3363147
24	0xbe920eef	-0.28527018
25	0x3e21ec59	0.15812816
26	0xc002fdf1	-2.0467494
27	0xbfe54505	-1.7911688
28	0xbf0bbc08	-0.5458379
29	0xbfcab955	-1.5837809
30	0xbeb3957e	-0.3507499
31	0x3f0710d8	0.52760077
32	0xbf6d28a0	-0.92640114
33	0xbef45f21	-0.47728828
34	0x3fce0a05	1.6096808
35	0xbf23c440	-0.6397133
36	0x3f6e6c73	0.9313423
37	0x3ea44083	0.3208047
38	0xbf19e49f	-0.60114473
39	0x40303069	2.7529547
40	0x3f80a1c7	1.004937
41	0x3db5286f	0.08845603
42	0x3f97e750	1.1867466
43	0x3ec4d03b	0.38440117
44	0x3e826508	0.25467706
45	0x3f96217f	1.1728972
46	0xbe715f8b	-0.23571603
47	0xbf8a1ed2	-1.0790656
48	0xbeddad18	-0.43296123
49	0xbe345a5f	-0.17612599
50	0xbdc3571d	-0.095381
51	0x3f0eaf97	0.5573668
52	0x3fb8ed6c	1.4447455
53	0x3f0de795	0.5543149
54	0x3f19e772	0.6011878
55	0xbf650ea1	-0.89475447
56	0x3ef50cf6	0.4786145
57	0xbf0f73f5	-0.5603631
58	0xc013a672	-2.307034
59	0xbf604515	-0.8760541
60	0x3e1f05f9	0.15529622
61	0xc01351a6	-2.3018584
62	0x3f174cef	0.59101766
63	0x3f364d63	0.7121183
64	0xbfbce3f9	-1.4757072
65	0xbf917c2e	-1.1366022
66	0x3e1e6690	0.15468812
67	0xbe6191ba	-0.22028247
68	0x3f2058f2	0.6263572
69	0x3fd34cdd	1.6507832
70	0x3e859a6d	0.2609438
71	0x3fbaa99b	1.458301
72	0x3f50a3b0	0.8149977
73	0xbe8e8f94	-0.27843916
74	0x3eeff006	0.4686281
75	0xbf37bb6a	-0.71770346
76	0x3f4d02f6	0.80082643
77	0x3e723577	0.23653208
78	0xbef300f1	-0.47461656
79	0xbf6875f4	-0.9080498
80	0xbee846a8	-0.45366406
81	0xbe393bf1	-0.18089272
82	0xbf58bfc1	-0.84667593
83	0xbea8334d	-0.3285164
84	0x401cdef3	2.4511077
85	0xbf2f5ba6	-0.6849922
86	0x3e4508df	0.19241665
87	0xbd2beae3	-0.041972052
88	0x3e9fe1aa	0.31226856
89	0xbefdaabb	-0.4954432
90	0xc03edca7	-2.9822176
91	0x3e4167f0	0.18887305
92	0xbf2af9d3	-0.6678745
93	0x3f18dc5c	0.5971124
94	0xbe0f030e	-0.13966009
95	0x3e362487	0.17787372
96	0x3fbfc330	1.4981441
97	0xbfa00263	-1.2500728
98	0xbd76d6ef	-0.06026357
99	0xbfd02f5e	-1.6264455
100	0xbeb82671	-0.35966828
101	0xbfa577ed	-1.2927223
102	0xbf9a87b6	-1.2072666
103	0xbf9a3271	-1.2046643
104	0x3c5481c8	0.012970395
105	0xbeacc26f	-0.3374209
106	0x3f697e70	0.91208553
107	0xbd9d13a2	-0.0766976
108	0x3e2c44cb	0.16823117
109	0x3ecf2ce7	0.40463945
110	0xbeeae719	-0.4587944
111	0x3db1a4ce	0.08674012
112	0xbf347515	-0.70491153
113	0xbf7b491e	-0.9815844
114	0xbdd85cbd	-0.105645634
115	0x3f54a566	0.8306488
116	0x3f1031cb	0.5632598
117	0x3fae77f6	1.3630359
118	0x3e9897f2	0.29803425
119	0xbfaac68a	-1.3341839
120	0x3f98a66f	1.1925792
121	0xbf17e2a6	-0.59330213
122	0xbe348169	-0.17627491
123	0xbf934648	-1.1505823
124	0xbe03cc04	-0.12870795
125	0xbe429c72	-0.19004992
126	0xbe47f124	-0.19525582
127	0x3f7359f9	0.9505916
128	0x3f3106bc	0.691509
129	0xbf4b0d2e	-0.79316986
130	0xbf85f57d	-1.0465542
131	0xc0172c05	-2.3620617
132	0x3f988cc9	1.1917964
133	0xbf5e49b5	-0.8683122
134	0xbf1e09dd	-0.617338
135	0xbf4f014c	-0.80861354
136	0x3f3f010a	0.7461096
137	0x3ee7a869	0.45245674
138	0x3ec8e148	0.39234376
139	0xbf38d39e	-0.721979
140	0xbdf69b4f	-0.120413415
141	0x3fd681d7	1.6758374
142	0xbf44a1d1	-0.7680941
143	0xbf10f083	-0.5661699
144	0xbff539a3	-1.9158214
145	0xbf5deccf	-0.86689466
146	0x3d446e52	0.047956772
147	0x3fa13b65	1.2596251
148	0x4015f789	2.3432333
149	0x3f9b7182	1.2144015
150	0x3f7bac90	0.98310184
151	0xbeccfab1	-0.40035012
152	0x3fc3fd8a	1.5311749
153	0xbf799ecb	-0.97507924
154	0xbf76d0d8	-0.9641242
155	0xbfbdcf18	-1.4828825
156	0xbf06c06a	-0.5263735
157	0x3f15c2b9	0.5850025
158	0x3ff1c797	1.8889035
159	0x3ebee5d0	0.37284708
160	0xbfb12d0b	-1.3841871
161	0xbf75a8a8	-0.95960474
162	0xbf998886	-1.1994789
163	0xbf2b3d22	-0.66890156
164	0x3f4c957e	0.79915607
165	0xbf2a61d1	-0.66555506
166	0xbe8b26b3	-0.27177963
167	0xbf3ceb8f	-0.73796934
168	0xbe05e945	-0.13077267
169	0x3c9a4aec	0.018834554
170	0x3eb201cd	0.34767
171	0xbf161539	-0.58626133
172	0x3f913b7d	1.1346279
173	0x3fd34926	1.6506698
174	0xbf65de71	-0.89792544
175	0xbe8408b1	-0.2578788
176	0xbf8b53c9	-1.0884944
177	0xbf0ce521	-0.5503712
178	0xbf756cdf	-0.9586925
179	0x3edc189f	0.42987534
180	0x400aba6f	2.167629
181	0x3e1d1229	0.15338959
182	0x3e5c1a22	0.21494344
183	0x3de92999	0.11384887
184	0x3f0a9d41	0.541462
185	0xbf0a378a	-0.53990996
186	0xbef8a65a	-0.48564416
187	0x3eeb4a93	0.45955333
188	0xbf6972c0	-0.9119072
189	0x3f1e292a	0.6178156
190	0x3f0973d5	0.5369237
191	0x3e6dd983	0.23227505
192	0x4088d481	4.2759404
193	0xbf599ce3	-0.85005015
194	0xbe56917c	-0.20953935
195	0xc00b884c	-2.180194
196	0x3f12dbfe	0.5736693
197	0x3fa7954a	1.3092434
198	0xbf1a5c14	-0.6029675
199	0x3f9be33f	1.2178725
200	0x3c38bd9b	0.011275674
201	0xc0311f08	-2.767519
202	0x3fbe5134	1.4868531
203	0xbfc55042	-1.5415118
204	0x3f29baa7	0.66300434
205	0x3e9882bf	0.2978725
206	0x4013922a	2.3057961
207	0xbeea998e	-0.45820278
208	0xbe9d3ebe	-0.3071193
209	0xbc2ca300	-0.010536909
210	0xbf920b14	-1.1409631
211	0x3e9f54f6	0.31119508
212	0x3e5ef839	0.21774377
213	0x3f9c5214	1.2212548
214	0x3e72028f	0.23633789
215	0xbf25f87e	-0.64832294
216	0x3eca022f	0.3945479
217	0xbf014573	-0.50496596
218	0xbfc804d7	-1.5626477
219	0xbee1fada	-0.44136697
220	0xbf0ec319	-0.55766445
221	0x3feee7cb	1.8664488
222	0xbc8f614f	-0.017502455
223	0x3f75f0f3	0.96070784
224	0x3f8bd917	1.0925626
225	0xbcedf8e5	-0.029049346
226	0xbf9a5079	-1.2055808
227	0xbf82d8fb	-1.0222467
228	0x3eb28c55	0.3487269
229	0x3f55c3dd	0.8350199
230	0xbe17e190	-0.14832139
231	0xbf5b1ecd	-0.85593873
232	0x3eb204ed	0.34769383
233	0xbf93434d	-1.1504914
234	0x3ebb189e	0.3654222
235	0xbfc38b16	-1.5276821
236	0x3e05b00f	0.13055442
237	0x3fab1717	1.3366421
238	0x3fd6253a	1.6730111
239	0xbfaea03b	-1.3642648
240	0xbe3523f5	-0.17689498
241	0xbf4a8665	-0.7911132
242	0xbd94bb89	-0.07262332
243	0x3f507f2a	0.81444037
244	0x3f2e7cd9	0.6815925
245	0x3fae0a84	1.3596959
246	0x3eb163c3	0.34646425
247	0xbee7234a	-0.4514411
248	0x3f6c02d8	0.9219184
249	0xbf6b0e26	-0.91818464
250	0xbf2c00eb	-0.671889
251	0xbecfda3a	-0.4059618
252	0xbf38f36d	-0.7224644
253	0x3ca302e1	0.019898834
254	0x3eec5c71	0.46164277
255	0x3f8a99b3	1.0828155

model/fc/MatMul f4 [2, 256]
0	0xbe5352db	-0.20637076
1	0xbe3827c1	-0.17983915
2	0xbdfe2c3e	-0.12410782
3	0xbe20ee58	-0.15715921
4	0xbe571338	-0.21003425
5	0xbc12439d	-0.008927253
6	0xbd82fd84	-0.063960105
7	0x3d07ac01	0.03312302
8	0xbe72988a	-0.23691002
9	0xbdfe2583	-0.124094985
10	0x3e2bfaa9	0.16794838
11	0x3e2d59db	0.16928808
12	0xbe0b96e4	-0.13631779
13	0xbe17076f	-0.1474893
14	0x3d56c19a	0.052430727
15	0xbe9943e7	-0.29934618
16	0xbe534021	-0.20629932
17	0xbe963f86	-0.2934534
18	0x3de2ddb2	0.11077441
19	0x3e495164	0.19659954
20	0x3dff698f	0.124713056
21	0x3e3dcdc6	0.18535528
22	0x3df631e6	0.12021236
23	0x3e2f3c75	0.17112906
24	0xbe82b7f3	-0.25530967
25	0xbe877d57	-0.26462814
26	0x3e5b8046	0.21435651
27	0x3e6675e1	0.22505905
28	0xbe3c4f39	-0.18389596
29	0x3e20eae1	0.15714599
30	0xbe954403	-0.2915345
31	0xbe491710	-0.19637704
32	0x3e738cb4	0.23784143
33	0x3da7495a	0.081682876
34	0xbe89a79a	-0.26885682
35	0xbe6f36e0	-0.23360777
36	0x3e6391d9	0.22223605
37	0xbe801eff	-0.25023648
38	0xbe3cf760	-0.18453741
39	0xbe5b51f8	-0.21417987
40	0x3e7d3439	0.24726953
41	0x3cb380ba	0.021911968
42	0x3d83f6f5	0.06443588
43	0xbe34ec20	-0.176682
44	0xbe8448a7	-0.2583668
45	0xbe71fba7	-0.23631154
46	0xbdf84140	-0.121218204
47	0xbe87f3a3	-0.26553068
48	0xbd7d1799	-0.061790083
49	0x3e0f5425	0.13996942
50	0x3e8097c2	0.25115782
51	0xbe4a1e6d	-0.19738169
52	0xbe8fca3a	-0.28083974
53	0x3e313d93	0.17308645
54	0xbe9c030d	-0.30471078
55	0x3e844546	0.258341
56	0x3e313e2b	0.17308871
57	0xbd28b6c3	-0.04118992
58	0xbdc2a9e8	-0.09505063
59	0xbdab1fc9	-0.08355672
60	0xbe593dd6	-0.21214995
61	0xbc43d46a	-0.011952499
62	0xbe2b388a	-0.16720787
63	0xbe832275	-0.25612226
64	0x3e06b4fe	0.1315498
65	0xbe864d85	-0.26231018
66	0x3e298b3a	0.16557017
67	0xbe1eeaae	-0.1551921
68	0x3e2926f1	0.16518761
69	0xbe1cc3e4	-0.15309101
70	0xbe87c722	-0.26519114
71	0xbde851c1	-0.11343718
72	0xbe49270d	-0.19643803
73	0xbeb2928f	-0.3487744
74	0xbe63e3a0	-0.22254801
75	0xbc926633	-0.017870998
76	0xbe70ca8e	-0.23514768
77	0xbe939427	-0.2882397
78	0xbe62ac85	-0.22136123
79	0x3e56250a	0.20912567
80	0xbe7aa4f4	-0.24476987
81	0x3dfa5855	0.12223879
82	0x3e43039c	0.19044346
83	0xbe5d7865	-0.21627958
84	0x3e49cbfb	0.19706719
85	0x3e489352	0.19587448
86	0xbe8f232b	-0.2795652
87	0xbdee8374	-0.116461664
88	0x3e2b5d09	0.16734709
89	0x3e4fab25	0.2028013
90	0x3e35db0d	0.17759342
91	0x3e28784a	0.16452137
92	0xbe425ad1	-0.18979956
93	0xbe3dde0e	-0.18541738
94	0xbe38e604	-0.18056494
95	0x3d5b6fb4	0.053573325
96	0xbde205bc	-0.1103625
97	0xbe6c53a4	-0.23078781
98	0x3d427e82	0.04748393
99	0x3d913309	0.07089812
100	0x3dd393f7	0.103309564
101	0x3e3ace03	0.1824265
102	0xbe906b43	-0.28206834
103	0x3d884cb7	0.06655257
104	0x3e4da670	0.20083022
105	0xbe140d58	-0.14458215
106	0xbc324629	-0.010880985
107	0xbe8442a9	-0.25832108
108	0x3d901107	0.07034498
109	0x3dd46984	0.10371688
110	0x3d43d4ce	0.04781037
111	0x3e30bdfb	0.17259972
112	0xbe159c59	-0.14610423
113	0x3e1cb799	0.15304412
114	0xbe2101a7	-0.15723287
115	0xbe42efb8	-0.19036758
116	0x3e404511	0.18776347
117	0xbe075d82	-0.13219264
118	0x3e491af9	0.19639196
119	0x3e4c115d	0.19928499
120	0xbe4bb97f	-0.1989498
121	0xbe7e3c30	-0.24827647
122	0x3e3cb409	0.18428053
123	0x3e2fc1f3	0.1716383
124	0xbe059201	-0.13043977
125	0x3dd80d4a	0.1054941
126	0x3d2511bf	0.040300127
127	0x3d11b882	0.03557635
128	0x3e56f9e3	0.20993762
129	0x3e5c9ed1	0.21544959
130	0xbdd7f1ad	-0.10544143
131	0x3d6458cc	0.055748746
132	0x3e534a56	0.20633826
133	0xbe7badca	-0.24578014
134	0x3dc797be	0.097457394
135	0x3e064401	0.13111879
136	0x3dd8beab	0.10583242
137	0xbe98e3a0	-0.29861164
138	0x3e66884c	0.2251293
139	0xbe6a49b6	-0.22879681
140	0xbe722fe4	-0.23651081
141	0xbe6d2a76	-0.23160729
142	0x3dd10c5a	0.10207434
143	0x3e25799e	0.16159675
144	0x3e49026f	0.19629835
145	0x3dd567b2	0.10420169
146	0xbe04f779	-0.12985028
147	0xbe934be5	-0.2876884
148	0xbaf4ad7c	-0.0018667425
149	0x3e809fb2	0.25121838
150	0x3ddc5d39	0.10759968
151	0x3c43f42c	0.011960071
152	0xbe6497b4	-0.22323495
153	0x3e328c42	0.17436317
154	0x3d2856c9	0.04109839
155	0xbe7271cb	-0.23676221
156	0xbe7474fd	-0.23872752
157	0xbe429958	-0.19003808
158	0xbe55b37e	-0.20869252
159	0x3e5f3b3f	0.21799944
160	0x3e771acc	0.24131316
161	0x3df0255b	0.11725875
162	0x3d9859d1	0.07439006
163	0xbe3cd2f5	-0.18439849
164	0xbdef110e	-0.11673175
165	0x3dcc8040	0.09985399
166	0xbd70642c	-0.05868928
167	0x3df99f36	0.1218857
168	0x3e62ae4c	0.22136801
169	0x3e85d495	0.2613875
170	0x3e60cbc7	0.21952735
171	0x3e6e44d3	0.23268442
172	0x3daa6c87	0.08321481
173	0x3d9019e1	0.07036186
174	0x3cee0e10	0.02905944
175	0x3e432692	0.19057682
176	0xbe6dd639	-0.2322625
177	0x3e8acbe5	0.27108684
178	0x3e237b70	0.15965056
179	0x3e36e5d5	0.17861111
180	0xbd8ca053	-0.06866517
181	0xbeb1e32b	-0.34743628
182	0x3e586b13	0.21134596
183	0xbe7b3ba7	-0.24534474
184	0xbe8af6de	-0.2714147
185	0xbe1a4204	-0.15064245
186	0x3e275388	0.16340458
187	0xbdfc0dc1	-0.12307311
188	0x3e5686ca	0.20949855
189	0x3e2b096f	0.16702817
190	0xbe9472ae	-0.28993744
191	0xbe2fae87	-0.1715642
192	0xbdef3753	-0.11680474
193	0xbd94ea25	-0.07271222
194	0x3e0ebb48	0.1393863
195	0x3e335f35	0.17516787
196	0x3e5a9170	0.21344543
197	0xbe8c0811	-0.27349904
198	0x3d593a3a	0.053034045
199	0xbe845057	-0.25842544
200	0xbc08acce	-0.008341981
201	0xbeab1777	-0.3341634
202	0x3e6b7fa5	0.22997911
203	0x3e11d684	0.14241987
204	0x3e5bb60d	0.21456166
205	0x3e53d06a	0.20684972
206	0x3e87e1a4	0.26539338
207	0x3e4f3f3e	0.20238969
208	0xbe0c7311	-0.1371577
209	0x3e85139e	0.2599153
210	0x3da4ea5e	0.080525145
211	0xbe7f260f	-0.24916862
212	0x3d008a97	0.03138217
213	0x3e7c77b9	0.24655046
214	0x3e734d08	0.23759854
215	0xbe0a5e92	-0.13512638
216	0x3c637c38	0.0138845965
217	0xbe8e34e8	-0.2777474
218	0xbe97c864	-0.29645073
219	0xbe5b14b7	-0.21394621
220	0xbea6aaf7	-0.3255231
221	0xbe3b36d8	-0.1828264
222	0x3db4786c	0.08812031
223	0xbe897da7	-0.26853678
224	0x3e807beb	0.25094542
225	0x3df74b43	0.12074902
226	0xbdc06dcb	-0.09395941
227	0xbde4e069	-0.11175615
228	0x3dd2c2f4	0.102910906
229	0x3db6869f	0.08912396
230	0xbdeba7d8	-0.11506623
231	0x3d59cb17	0.053172197
232	0xbd2f236a	-0.042758383
233	0x3e2601b0	0.16211581
234	0xbe8ab8c3	-0.27094087
235	0x3e0e206d	0.13879557
236	0xbe0abcf0	-0.13548636
237	0xbe7b46ec	-0.24538773
238	0x3e13416d	0.14380427
239	0xbd5dce4f	-0.05415183
240	0xbe0689e6	-0.13138542
241	0xbe8cdc05	-0.27511612
242	0xbdb99c24	-0.090629846
243	0xbe299c11	-0.16563441
244	0x3e5661f5	0.20935805
245	0xbdf04d8d	-0.11733542
246	0x3c337a48	0.010954447
247	0x3dbf0ff9	0.093292184
248	0xbe4f81f1	-0.20264412
249	0x3e349c5e	0.17637774
250	0x3e407820	0.18795824
251	0xbe70ceec	-0.23516434
252	0xbe12c4f7	-0.14332949
253	0xbe50e642	-0.20400336
254	0xbd8e5e97	-0.06951635
255	0x3e4f8328	0.20264876

model/stage1/block2/3x3dwconv/depthwise f4 [6]
0	0x00000000	0.0
1	0x00000000	0.0
2	0x00000000	0.0
3	0x00000000	0.0
4	0x00000000	0.0
5	0x00000000	0.0

model/conv1/Conv2D f4 [6, 3, 3, 3]
0	0x3e6259f3	0.22104625
1	0xbdce7722	-0.100813165
2	0x3e7bda27	0.24594937
3	0x3e8db34a	0.2767585
4	0xbd081a48	-0.03322819
5	0xbd71f89c	-0.059074983
6	0xbc411dfa	-0.011786932
7	0xbe45b90b	-0.1930887
8	0x3e12b18c	0.14325541
9	0xbccc977c	-0.024974577
10	0xbd9e97e2	-0.07743813
11	0x3e37fb25	0.17966898
12	0x3db64107	0.08899122
13	0xbe8e2cb4	-0.2776848
14	0xbe3c246d	-0.1837327
15	0xbdc053c8	-0.0939098
16	0x3e462551	0.19350173
17	0x3e03767a	0.12838164
18	0xbe077fed	-0.13232394
19	0xbea7992d	-0.3273405
20	0x3e51488f	0.20437835
21	0xbe23109b	-0.15924303
22	0xbd365099	-0.044510458
23	0x3e972410	0.295197
24	0xbe329f9f	-0.17443703
25	0xbd9d798f	-0.07689201
26	0x3e8b97dd	0.272643
27	0x3de41fe6	0.11138897
28	0x3d14b0af	0.03630131
29	0x3e634b72	0.22196749
30	0xbe706c61	-0.23478843
31	0xbe636e6e	-0.22210094
32	0xbdee41cc	-0.116336435
33	0xbe1cbc11	-0.15306117
34	0xbd160788	-0.036628276
35	0xbdb80df9	-0.0898704
36	0xbe18cb23	-0.1492124
37	0x3d8e4151	0.06946052
38	0x3e5ba4e6	0.21449623
39	0x3e01628a	0.12635246
40	0x3ea995cc	0.33122098
41	0x3e55145d	0.20808549
42	0xbe89c366	-0.2690689
43	0x3e546fa4	0.20745713
44	0xbead635a	-0.33864862
45	0x3e43f5a9	0.1913668
46	0xbe869483	-0.2628518
47	0xbead94de	-0.3390264
48	0x3b2850e8	0.002568299
49	0xbdd33d08	-0.10314375
50	0xbe4181e6	-0.18897209
51	0x3dbaf284	0.091282874
52	0x3e3f25a8	0.18666708
53	0x3e29ca1d	0.16581006
54	0x3ca5be2d	0.020232284
55	0x3ec8adbb	0.39195046
56	0xbd853495	-0.0650417
57	0x3dd91e7f	0.1060152
58	0x3e5cc189	0.21558203
59	0x3c305e3c	0.010764655
60	0x3bf96310	0.007610686
61	0x3e064962	0.13113931
62	0x3e0cf04c	0.13763541
63	0x3d2aa109	0.04165748
64	0x3e803a0c	0.25044286
65	0x3d83c56c	0.064341396
66	0x3e4092a6	0.18805942
67	0xbdd9cf48	-0.10635239
68	0xbe68e8c2	-0.2274504
69	0x3e46227e	0.19349095
70	0x3c68fb05	0.014220004
71	0xbe8389ae	-0.2569098
72	0xbdc50745	-0.09620527
73	0xbe0af167	-0.1356865
74	0xbe410679	-0.18850125
75	0x3dcbce66	0.09951477
76	0x3e5ec09e	0.21753165
77	0xbe9903bd	-0.29885665
78	0xbcc89bf4	-0.024488427
79	0x3ddc9a96	0.107716724
80	0x3b580665	0.0032962796
81	0xbe2672ea	-0.16254774
82	0xbe88f3a8	-0.26748395
83	0xbc0e3ea0	-0.008681923
84	0xbe63435d	-0.22193666
85	0xbea171a2	-0.31532007
86	0xbd93c279	-0.07214827
87	0x3e8a7a2d	0.27046338
88	0x3e213417	0.15742527
89	0xbe344561	-0.17604591
90	0x3e6cf95b	0.23141997
91	0xbddfe27e	-0.10931872
92	0xbe280f50	-0.16412091
93	0xbe19438d	-0.14967175
94	0x3e4fab88	0.20280278
95	0x3e9eaab5	0.30989614
96	0x3e31796c	0.17331475
97	0x3db3114d	0.08743534
98	0xbd03d412	-0.032184668
99	0x3ec14692	0.37749153
100	0x3e5194d0	0.20466924
101	0x3e1f077e	0.15530202
102	0xbe2ca86c	-0.16861123
103	0xbe575d88	-0.21031773
104	0xbdedcac3	-0.11610939
105	0xbd073f41	-0.033019308
106	0xbe59835e	-0.21241519
107	0x3e874702	0.26421362
108	0x3e81f709	0.25383785
109	0xbe3723ca	-0.17884746
110	0xbe6572ad	-0.22407027
111	0x3dc19a3e	0.094532475
112	0xbd694509	-0.056950603
113	0xbe5736ac	-0.2101695
114	0x3d8bb9f7	0.06822579
115	0xbdabddcd	-0.083919145
116	0xbd2677b3	-0.040641498
117	0x3dd06fbb	0.10177561
118	0x3ca0f814	0.019649543
119	0x3e16b7e5	0.14718588
120	0x3e773391	0.24140765
121	0x3d89702b	0.067108475
122	0xbe9fb389	-0.31191662
123	0x3deb5a76	0.114918634
124	0x3cd310b6	0.025764804
125	0x3ad3a7d3	0.0016148038
126	0x3e05155a	0.12996426
127	0xbd98f819	-0.07469196
128	0x3e9280a2	0.28613764
129	0xbe9e3787	-0.3090174
130	0x3e78f3f3	0.24311809
131	0x3dcfe0e1	0.10150314
132	0xbc16f61f	-0.009213953
133	0x3e87435e	0.26418585
134	0x3d63b014	0.055587843
135	0x3e892ce4	0.2679206
136	0xbe1107b9	-0.14163102
137	0x3c063878	0.008192174
138	0xbdef1d9d	-0.1167557
139	0xbe40db10	-0.18833566
140	0x3e101d62	0.14073709
141	0x3e4b3d42	0.19847587
142	0x3ddc0363	0.107428335
143	0x3bc2b726	0.005942243
144	0x3e50a0d9	0.20373859
145	0xbe54aaad	-0.20768233
146	0xbe3af52d	-0.1825759
147	0x3ec235e9	0.37931755
148	0x3e39d47d	0.18147464
149	0xbe7acc1b	-0.24491923
150	0x3ec06db9	0.37583712
151	0xbe66ed4d	-0.2255146
152	0xbdadb7fd	-0.084823586
153	0x3e401451	0.1875775
154	0xbb70cea2	-0.0036744257
155	0xbe8ee990	-0.2791257
156	0xbe49b17d	-0.19696613
157	0xbcef2eaf	-0.029197065
158	0xbe96512a	-0.29358798
159	0x3e7938ec	0.2433812
160	0xbe248bfc	-0.16069025
161	0xbe8b572f	-0.27214953

model/stage1/block1/1x1conv_1/Conv2D f4 [9, 1, 1, 6]
0	0xbfe0f717	-1.7575406
1	0x40b93200	5.7873535
2	0x3f651812	0.89489853
3	0x40abd926	5.3702574
4	0xc05069e1	-3.2564623
5	0x405844c2	3.3791966
6	0xbfa9bbe4	-1.3260465
7	0x3f8c13e3	1.0943569
8	0x3fd55cdd	1.6668965
9	0xbe1b557c	-0.15169328
10	0x3fe3f744	1.7809834
11	0xc030843a	-2.7580705
12	0x3c92c468	0.01791592
13	0x3f57bb18	0.8426986
14	0x3fc10833	1.5080627
15	0xbfad230d	-1.3526322
16	0x3ff70083	1.9297031
17	0xbf0d43f6	-0.55181825
18	0xbfde95b5	-1.7389437
19	0x3f0204a5	0.50788337
20	0x3fc0cd20	1.5062599
21	0x3e7c6f4a	0.24651828
22	0x3fa9517e	1.3227994
23	0x3f8ccd46	1.1000144
24	0xbfcd3503	-1.6031803
25	0xbc694e60	-0.014239877
26	0x3e4afa1f	0.19821976
27	0xbfe4261f	-1.7824134
28	0xc03512c7	-2.829271
29	0x3f81f432	1.0152647
30	0x3fe6ad3a	1.8021615
31	0x40176562	2.365563
32	0x40547d72	3.3201566
33	0x4095973d	4.6747117
34	0xc0a9ae3c	-5.302519
35	0xc073b94a	-3.8081841
36	0xc0a13d48	-5.0387306
37	0x3f3b2336	0.731006
38	0x40ba4ead	5.822104
39	0xc0487571	-3.132168
40	0xc004c422	-2.074471
41	0xbfccb5d4	-1.599299
42	0xbe542ec5	-0.20720966
43	0x3f879fa2	1.0595591
44	0x4017dfa5	2.3730252
45	0xbfc6e913	-1.5539879
46	0x3fe920d4	1.8213143
47	0xbfbcc0c7	-1.4746331
48	0xbf8c64a1	-1.096821
49	0xc05c346a	-3.440699
50	0x400b0783	2.1723335
51	0x405144cc	3.269824
52	0xbd98944e	-0.07450162
53	0x3f17ac18	0.5924697

model/stage1/block2/1x1conv_1/Conv2D f4 [6, 1, 1, 12]
0	0xbe33ed7d	-0.17571063
1	0x3e11980e	0.1421816
2	0x3f6efe13	0.93356436
3	0xbeebe68a	-0.46074325
4	0x3e4abe4b	0.19799154
5	0x3eb06b95	0.3445708
6	0x3d975231	0.07388724
7	0x3f01b35f	0.50664324
8	0x3e409cb5	0.18809779
9	0x3f1389d9	0.57632214
10	0x3e50d8b3	0.20395164
11	0x3e1cbdd0	0.15306783
12	0x3dad7bf3	0.08470907
13	0xbef98c48	-0.4873984
14	0x3e322b74	0.17399389
15	0xbeb7dcdd	-0.35910693
16	0x3ea0abec	0.31381166
17	0xbe9edaf6	-0.3102643
18	0x3e27bea3	0.16381316
19	0xbdb3ea61	-0.087849386
20	0x3e845bca	0.2585128
21	0x3e952fed	0.29138127
22	0xbe93bb30	-0.2885375
23	0xbecd60e4	-0.40112984
24	0x3e9ca50b	0.30594668
25	0xbe5863f2	-0.21131876
26	0xbd9f2bdb	-0.07772037
27	0xbe8446e9	-0.2583535
28	0x3d8656d1	0.06559528
29	0x3e8305c5	0.2559034
30	0x3e51384f	0.20431636
31	0x3ea2918d	0.3175167
32	0xbef95ecd	-0.4870514
33	0xbee37820	-0.44427586
34	0xbede043c	-0.43362606
35	0x3f3516d4	0.7073796
36	0x3dca0613	0.0986444
37	0xbe9adc27	-0.30246088
38	0x3ec2c1a1	0.38038352
39	0xbf2f202c	-0.68408465
40	0xbeb81d27	-0.3595974
41	0xbdd4aea1	-0.1038487
42	0x3de2f7a1	0.11082388
43	0x3df3c6a3	0.11903121
44	0xbe8e435e	-0.27785772
45	0x3e816a12	0.25276238
46	0xbee77284	-0.45204556
47	0x3e5be27b	0.21473114
48	0xbc57c29b	-0.013168956
49	0xbf399146	-0.72487295
50	0x3db53c21	0.08849359
51	0x3f1d3c4d	0.61420137
52	0x3f433676	0.76254976
53	0x3e38c950	0.18045545
54	0xbe8e3a43	-0.27778825
55	0x3e23a78c	0.15981883
56	0xbed48f6a	-0.41515666
57	0xbf310c9b	-0.6915986
58	0x3eb34174	0.35010874
59	0x3e9f4fd9	0.31115606
60	0x3f878558	1.0587568
61	0x3e657230	0.2240684
62	0xbbc4105f	-0.005983397
63	0xbc627e1c	-0.013824012
64	0xbec072b7	-0.3758752
65	0x3e9397b3	0.28826675
66	0x3f423edb	0.7587716
67	0xbe8a278b	-0.26983294
68	0x3f4576fc	0.7713468
69	0x3f53baf3	0.82707137
70	0xbec234f3	-0.37931022
71	0x3e543bd9	0.20725955
